…
2018-05-09 14:26:57.708974: I tensorflow/core/common_runtime/gpu/gpu_device.cc:1053] Created TensorFlow device (/job:localhost/replica:0/task:0/device:GPU:0 with 10763 MB memory) -> physical GPU (device: 0, name: Tesla K80, pci bus id: 0000:00:1e.0, compute capability: 3.7)
__________________________________________________________________________________________________
Layer (type)                    Output Shape         Param #     Connected to                     
==================================================================================================
frames_in (InputLayer)          (None, 84, 84, 2)    0                                            
__________________________________________________________________________________________________
flatten_1 (Flatten)             (None, 14112)        0           frames_in[0][0]                  
__________________________________________________________________________________________________
dense_1 (Dense)                 (None, 128)          1806464     flatten_1[0][0]                  
__________________________________________________________________________________________________
dense_2 (Dense)                 (None, 128)          16512       dense_1[0][0]                    
__________________________________________________________________________________________________
dense_3 (Dense)                 (None, 128)          16512       dense_2[0][0]                    
__________________________________________________________________________________________________
dense_4 (Dense)                 (None, 128)          16512       dense_3[0][0]                    
__________________________________________________________________________________________________
dense_5 (Dense)                 (None, 64)           8256        dense_4[0][0]                    
__________________________________________________________________________________________________
dense_6 (Dense)                 (None, 64)           4160        dense_5[0][0]                    
__________________________________________________________________________________________________
extras_in (InputLayer)          (None, 132)          0                                            
__________________________________________________________________________________________________
concatenate_1 (Concatenate)     (None, 196)          0           dense_6[0][0]                    
                                                                 extras_in[0][0]                  
__________________________________________________________________________________________________
dense_7 (Dense)                 (None, 33)           6501        concatenate_1[0][0]              
==================================================================================================
Total params: 1,874,917
Trainable params: 1,874,917
Non-trainable params: 0
__________________________________________________________________________________________________
INFO:[2018-05-09 14:26:57][src.env_creator] * Created environment SonicTheHedgehog-Genesis/MarbleZone.Act1
…
